…
    System    - Linux 4.15.0-23-generic x86_64
    Version   - #25-Ubuntu SMP Wed May 23 18:02:16 UTC 2018
    Node      - Blackbook
    Time      - 2018-06-29 13:03:53.045419 UTC 

LIBRARY VERSIONS
    Python    - 3.6.5 on GCC 7.2.0
    Pytorch   - 0.3.1.post3
    CUDA      - 8.0.61
    CUDNN     - 7102 

RUN PARAMETERS
     Namespace(CUDA=False, batch_size=100, cosine_decay=True, data_path='/home/lukas/DR_DATA/temp/', model='', num_epoch=3, num_points=1000, num_workers=4, out_folder='/home/lukas/') 

DATA PARAMETERS
    Set sizes: 2400 & 8398 -> 28.6 %
MODEL PARAMETERS
PointNet(
  (feat): PointNetFeat(
    (conv1): Conv1d(8, 64, kernel_size=(1,), stride=(1,))
    (conv2): Conv1d(64, 128, kernel_size=(1,), stride=(1,))
    (conv3): Conv1d(128, 1024, kernel_size=(1,), stride=(1,))
    (bn1): BatchNorm1d(64, eps=1e-05, momentum=0.1, affine=True)
    (bn2): BatchNorm1d(128, eps=1e-05, momentum=0.1, affine=True)
    (bn3): BatchNorm1d(1024, eps=1e-05, momentum=0.1, affine=True)
    (mp1): MaxPool1d(kernel_size=1000, stride=1000, padding=0, dilation=1, ceil_mode=False)
  )
  (lin1): Linear(in_features=1024, out_features=512, bias=True)
  (lin2): Linear(in_features=512, out_features=256, bias=True)
  (lin3): Linear(in_features=256, out_features=1, bias=True)
  (bn1): BatchNorm1d(512, eps=1e-05, momentum=0.1, affine=True)
  (do1): Dropout(p=0.3)
  (relu): ReLU()
)
START EVALUATION OF RANDOM WEIGHTS
    Pre-train test score = 310.4924991861979
START TRAINING
    e0 - 0/83 - LR: 0.001999 - Loss: 213.221
    e0 - 1/83 - LR: 0.001997 - Loss: 187.566
    e0 - 2/83 - LR: 0.001994 - Loss: 187.987
    e0 - 3/83 - LR: 0.001989 - Loss: 129.179
    e0 - 4/83 - LR: 0.001983 - Loss: 74.787
…
